# yolov8_fusion.yaml
# YOLOv8 기반 RGB-Thermal Fusion 모델 구성

# 모델 하이퍼파라미터
nc: 5  # 클래스 수 (FLIR은 1)
depth_multiple: 0.33
width_multiple: 0.50
ch: 3  # 입력 채널 (각각 RGB, Thermal 동일)

# Backbone (두 스트림 분리: RGB, Thermal)
backbone:
  # RGB stream
  - [-1, 1, Conv, [64, 3, 2]]         # 0-P1/2
  - [-1, 1, Conv, [128, 3, 2]]        # 1-P2/4
  - [-1, 3, C2f, [128]]               # 2-P3/8
  - [-1, 1, Conv, [256, 3, 2]]        # 3-P3/8
  - [-1, 6, C2f, [256]]               # 4-P3/8
  - [-1, 1, Conv, [512, 3, 2]]        # 5-P4/16
  - [-1, 6, C2f, [512]]               # 6-P4/16
  - [-1, 1, Conv, [1024, 3, 2]]       # 7-P5/32
  - [-1, 3, C2f, [1024]]              # 8-P5/32
  - [-1, 1, SPPF, [1024, 5]]          # 9

  # Thermal stream (시작은 -7: 입력 두 번째 스트림용으로 구분)
  - [-7, 1, Conv, [64, 3, 2]]         # 10-P1/2
  - [-1, 1, Conv, [128, 3, 2]]        # 11-P2/4
  - [-1, 3, C2f, [128]]               # 12-P3/8
  - [-1, 1, Conv, [256, 3, 2]]        # 13-P3/8
  - [-1, 6, C2f, [256]]               # 14-P3/8
  - [-1, 1, Conv, [512, 3, 2]]        # 15-P4/16
  - [-1, 6, C2f, [512]]               # 16-P4/16
  - [-1, 1, Conv, [1024, 3, 2]]       # 17-P5/32
  - [-1, 3, C2f, [1024]]              # 18-P5/32
  - [-1, 1, SPPF, [1024, 5]]          # 19

# Fusion Neck + YOLO Neck + Head
head:
  # CBAM 기반 FusionNeck
  - [[[3, 5, 7], [13, 15, 17]], 1, FusionNeck, [[128, 256, 512]]] # 20

 # YOLOv8 Neck (P4, P3, P5 feature map)
 # 21. Upsample P5 (y[8]) → 16x16
  - [-1, 1, nn.Upsample, [None, 2, "nearest"]]         # 21  y[9]
  - [[-1, 7], 1, Concat, [1]]                         # 22
  - [-1, 3, C2f, [512]]                               # 23  y[11]

  - [-1, 1, nn.Upsample, [None, 2, "nearest"]]        # 24
  - [[-1, 6], 1, Concat, [1]]                         # 25
  - [-1, 3, C2f, [256]]                               # 26 y[14]

  # 27. Downsample (P3 → P4)
  - [-1, 1, Conv, [256, 3, 2]]                        # 27
  - [[-1, 11], 1, Concat, [1]]                        # 28
  - [-1, 3, C2f, [512]]                               # 29 y[17]

  # 30. Downsample (P4 → P5)
  - [-1, 1, Conv, [512, 3, 2]]                        # 30
  - [[-1, 8], 1, Concat, [1]]                         # 31
  - [-1, 3, C2f, [1024]]                               # 32 y[20]

  # 33. Detect
  - [[14, 17, 20], 1, Detect, [nc]]                  # 33